weights/best_weights.pth (torch, 44410 bytes, 5 tensors)

sr_model.conv1.weight f4 [32, 1, 5, 5]
00000000: 55f7 003e 261a a03d c43d 2d3d 79c3 8cbd
00000010: 1f30 cd3d d069 a2bd 1c8a 32be e386 5f3c
00000020: fc63 333e 0067 9d3c 7820 fabc cbd3 9f3d
00000030: ce1e 023e 45f8 973d cd4e 223e 69ab 0a3e
00000040: c288 363e 6aa5 42be f2ce 45bd c5f8 a53c
00000050: a48c 83bd e6a8 a5bd e349 293e bfbf fc3b
00000060: 5df6 153e 4409 d43c 6daf bcbd 6ffc 96bc
00000070: 15c5 3dbe 7160 03be 69db 893d b3f1 ea3d
00000080: e8a1 59be 42b8 2e3e b223 4c3e f420 acbd
00000090: b27a 23bd fc0a 1c3e 1dea 5fbb 149d 4f3e
000000a0: e3ef a1bc 9c16 0bbd f193 283e 6d0d 4cbd
000000b0: e917 303d 37ce d03c 9517 f1ba e0bd 30be
000000c0: 08f5 c33d 7044 6c3c fdd0 473e 0590 43bb
000000d0: da35 52bc fb88 1d3d fbba 0abd b6b5 94bd
000000e0: 5284 06be 8bd3 413e 5b21 3abd 30db 983d
000000f0: 9863 d8bc 85c1 1cbd f52f 683d ebc9 bd3c
00000100: 4bea 33bd baa1 323c 5f4a 2f3e cc37 f03c
00000110: 2bdc 78bc e41a d23c 760b a63c 5c23 d6bd
00000120: 4732 5ebc 5f36 3c3e e658 f9bd 58fe 1e3d
00000130: 3841 cdbd 1955 53be c9df 803d 34a5 933d
00000140: 147e 143e 94a3 47be 7acf 0b3e cf0c 0a3e
00000150: db2f 97bd ba41 61bd f071 243e 350d 8abc
00000160: 50a7 fbbd 9a8b 46be 3132 a63d c2f5 09be
00000170: 8f12 853c 7768 c9bd e23c 04bb ae38 24bd
00000180: a619 1c3e bfbb c2bc 9950 c23d e470 d73d
00000190: 6556 003e b09a e8bd f783 963d 1e4f 20be
000001a0: 6ffc 58bd a13f bcbd 3d55 50be 5ac7 34be
000001b0: e4db 6e3d d877 693d bdb7 1e3e 1af4 30be
000001c0: 6165 373d a4b3 61bd b178 433e e182 913d
000001d0: ef9d a3bd 96d3 413d f99d 5f3e 2a24 b2bd
000001e0: ab4c 153e b462 203e c00b cfbc 6233 d13c
000001f0: cbb9 c4bd c712 f83d 6eba 30be 3606 0c3e
00000200: c880 febd 1622 b2bd 3275 183e 223d 433e
00000210: 2020 21be 1439 b63d 332c 573e 3a4d 3e3e
00000220: 0585 d93d 3af7 01be 90c8 50bc b7b7 0cbe
00000230: c212 bd3c a07d 243e b196 17be 95b2 2e3e
00000240: 782b a53d 0589 dcbd 08a9 813d 9270 1abe
00000250: ffd7 03be b009 71bd b4a0 d33d 75fb 303d
00000260: 1a03 b2bd 4f03 1b3e 3d2e 16ba 3145 b43d
00000270: 8189 ffbd f345 6c3d 24ae 2cbe 7847 09be
00000280: e81b 843d 96ea 123e e2f1 b5bd 66d6 cfbc
00000290: 80cb bebd 93dc 5dbe d8c8 bc3c effb 3cbc
000002a0: 3fc2 8c3e d8b7 033e d545 81bc f2e7 51be
000002b0: 76e4 1c3e 9484 1d3e 3e28 863d bfff c0bd
000002c0: f9ef eb3d 9aad 07be 932c 283e f755 093e
000002d0: 8316 f23d 9a77 2f3e 9fd2 ef3d 9d0d 3e3e
000002e0: 84d9 0c3e 784e e23b 71af 113e fc86 c83c
000002f0: f123 f4bd d310 4a3e fccc 0c3e 6749 03be
00000300: 75d4 dbbd d1ba 153e 70e7 06be 8af8 2a3b
00000310: 5b2a f0bc db16 503e 913c f93d c131 b8bc
00000320: c3bc 293e 3387 0dbe 7880 923c fad9 733d
00000330: bc17 153b e791 e13d 9846 9cbc f590 4f3e
00000340: b8d3 b3bd d85c 573e 4920 adbb 0caf a13b
00000350: 05af 253e dbc4 e73c 021a 5f3e 1045 13be
00000360: 6016 8dbd 0bc7 c6bd 6543 123e 581c 6dbd
00000370: f3be 1b3e bd5e c03c f1d4 16be b855 29be
00000380: e64e afbd 336e c1bd 9d83 41be dfc3 26be
00000390: 18ce 1bbe 3f76 093e e5b4 263e 755f 46be
000003a0: 97b9 f1bd 90d7 293e 07f9 18bd 5aa6 403d
000003b0: 9a38 dfbc 6a98 443e 7054 c3bd 1713 22be
000003c0: c021 edbd 130a f13d b3c6 7b3d a097 8a3d
000003d0: cd7b 34bc 8534 2ebe 4da0 eabc c8f1 0bbe
000003e0: cd25 fe3c 13b4 c3bd 2d38 c53d 74b4 153e
000003f0: 6b82 043e f179 d33d baaf b73d b263 763d
0.1259435 0.078174874 0.042295232 -0.06873221 0.10018944 -0.079303384 -0.17435497 0.013642999
0.1751861 0.019214153 -0.03053306 0.07804068 0.12707064 0.074204005 0.15850373 0.1354195
0.17825606 -0.19008413 -0.04829306 0.020260224 -0.064233094 -0.080888554 0.16532092 0.0077132876
0.14644761 0.025883324 -0.09213147 -0.018430917 -0.18532212 -0.12829758 0.06731302 0.11471882
-0.21253169 0.17062476 0.19935492 -0.08404723 -0.039911933 0.15238565 -0.0034166642 0.20274764
-0.019767707 -0.03395711 0.16462685 -0.04981749 0.042991553 0.025488956 -0.0018393869 -0.17259932
0.095682204 0.014420614 0.19513316 -0.002984048 -0.012830222 0.038460713 -0.033869725 -0.07261221
-0.13136414 0.18928353 -0.045441967 0.07463682 -0.026414678 -0.038270492 0.05668636 0.023167571
-0.04392461 0.010902816 0.17118214 0.029323481 -0.015189211 0.025647588 0.020269137 -0.10455963
-0.013561792 0.18380116 -0.12175159 0.03881678 -0.10022205 -0.20637931 0.06292684 0.07209244
0.1450122 -0.19495994 0.13653365 0.13481449 -0.073821746 -0.054994322 0.16059089 -0.016852
-0.12287772 -0.19389191 0.08115042 -0.13472655 0.016244201 -0.09834378 -0.002017789 -0.040093116
0.15244159 -0.023771165 0.09488029 0.10519579 0.12532957 -0.11357629 0.07349389 -0.15655181
-0.052975114 -0.09191824 -0.20345016 -0.17654172 0.058315173 0.056999058 0.15499778 -0.17280617
0.044774417 -0.05510296 0.19089009 0.07105041 -0.07989108 0.047320925 0.21837606 -0.08698304
0.14580028 0.15662652 -0.025274158 0.025537197 -0.0960575 0.121129565 -0.17258617 0.13674244
-0.12426907 -0.086979076 0.14888456 0.19066289 -0.15734911 0.088976055 0.21012954 0.18584147
0.106210746 -0.12691966 -0.01274313 -0.13741957 0.023080233 0.16063547 -0.14803578 0.17060311
0.08064932 -0.10768322 0.06331068 -0.15082005 -0.12875365 -0.05884713 0.10333386 0.043208558
-0.08691998 0.15137981 -0.0005728936 0.0880226 -0.12477399 0.057683896 -0.16863304 -0.1340617
0.06450635 0.143473 -0.08884026 -0.025370788 -0.09316158 -0.21666174 0.023044989 -0.011534675
0.27491948 0.128631 -0.015780369 -0.20498636 0.15321526 0.15382606 0.06550644 -0.0942378
0.115203805 -0.13249817 0.16423254 0.13411699 0.118207 0.17135468 0.11710095 0.1855988
0.1375485 0.006906327 0.14227082 0.024478428 -0.11920918 0.1973298 0.1375007 -0.1282097
-0.10733882 0.14622046 -0.13174224 0.0026088082 -0.029317072 0.20321219 0.12169755 -0.022484662
0.16575913 -0.13821106 0.017883524 0.05953405 0.0022749742 0.11014157 -0.01907663 0.2027014
-0.087806165 0.21031511 -0.0052833897 0.0049341973 0.16180046 0.02829211 0.21787265 -0.14381814
-0.06889033 -0.09705933 0.14283521 -0.05788836 0.1520956 0.023482675 -0.14729668 -0.16536605
-0.085599706 -0.09444847 -0.18897863 -0.16285656 -0.15215337 0.13424014 0.16279943 -0.19372351
-0.118029766 0.16586137 -0.037346866 0.047033645 -0.02724867 0.19198766 -0.095375896 -0.15827595
-0.11578703 0.117695 0.06146879 0.067672014 -0.0110158445 -0.17012222 -0.02864089 -0.13666451
0.031023884 -0.09555831 0.09629855 0.14619619 0.12940376 0.10325993 0.08969064 0.06015367

sr_model.conv1.bias f4 [32]
00000000: e557 bc3c a83f 58be eef0 5c3c 68ba 603d
00000010: e8f7 203d 96f6 79be 950f ccbc 85d7 e4bd
00000020: daf7 de3c 2072 ebbd bedd 133e 2201 673c
00000030: c0f2 02bd bfec a4bb bfdc 0c3d f349 3c3e
00000040: 7cbc c33d 0940 1abe c082 f33c 6427 44be
00000050: 5f25 8c3b 8114 32be 70bc f0bc efce 943d
00000060: fd97 1e3e 1fb8 883d 3e3a 92bb 1eab 873d
00000070: 6d98 eebc aac5 1b3c 29f3 473c cdd5 093d
0.02299113 -0.21118033 0.0134851765 0.05486527 0.03929892 -0.24410471 -0.024909774 -0.111739196
0.027217794 -0.11496377 0.14440057 0.014099391 -0.031969786 -0.005033105 0.034390207 0.18387584
0.09557435 -0.1506349 0.029725432 -0.19155651 0.004276916 -0.17390634 -0.029386729 0.07266032
0.15487666 0.06675743 -0.0044625094 0.06624435 -0.029125417 0.009507576 0.01220397 0.033651162

sr_model.conv2.weight f4 [32, 32, 3, 3]
00000000: 78b0 85bd d4ec 38bd 86de 263d 7bf7 c3bb
00000010: 5ab4 c43b f7ed 263d 5577 2dbd ce39 44bc
00000020: 0568 b2bc 571d 593d 2f71 093d e8f5 36bd
00000030: f4ae f43c 30e6 e3bc fc89 abbc ab31 2abd
00000040: 6d1b 65ba 593d 21bc 3057 17bd e60b 91b9
00000050: bcbc 39bd 98b7 003c fe2a 4f3c 4a83 6ebd
00000060: d1ae a9bc 25b8 3f3d aeea 6dbd 9a64 85bd
00000070: bc53 a03c 5ad1 b7bc 7e1d 733c 7789 283d
00000080: b385 213d 0aa0 70bd 4e93 7bbd e9b1 f43c
00000090: e948 6dbb 0545 6dbd 43aa 2dbc c60d 8fbc
000000a0: 1b97 3abd 3074 a43c f6e0 20bd 2dca ffbc
000000b0: dabf 453c 1d7c 473c cb3f 98bc 1d54 0f3d
000000c0: 31b7 77bd cc86 11bd a7aa ad3a 72ae 1c3c
000000d0: de1d 203d 65ce 81bd adc7 f23c 1835 da3c
000000e0: a627 dabc 7516 c7bc 0b23 02bd 914b 3c3d
000000f0: 42c6 3b3a e613 18bd 9160 08bc be0e 18bb
00000100: f7d4 79bd 9940 40bd 9bc8 46bd f7b1 e6bc
00000110: 6c59 4fbd c805 503d 0663 69bc 35ce 9abc
00000120: 36b7 48bc 46a0 913c d26f 88bb 490c 423d
00000130: caea 3a3d 2dc1 30bd a923 1abc 4072 aabc
00000140: ec72 e0bc aa95 953b 8828 f53c d21a 123d
00000150: b7e8 b73c 7818 de3c b8ac 1a3d 8a36 7c3c
00000160: 9c72 b53b 5395 aa3b d07f 1fbd 544e 27bd
00000170: 494a 45bd aa94 5abd 81cd e7bc df54 2f3c
00000180: 7c15 96bc 1d24 80bd ceb1 30bd adbc 0c3d
00000190: eb0e 2abd 1aa4 4c3c 3668 d13c bfd0 c83c
000001a0: eb8a 333d 02e0 5b3d a50e 163d b4d3 583d
000001b0: 1995 fa3c 02af 813b 4e8c 1a3c 0a6d b23c
000001c0: 16b0 1dbd 0c9a 0ebd 6307 33bd 0b53 123d
000001d0: a23f 343d 8768 513c 2a4a 283c 8526 123d
000001e0: 94d5 afbc 121e fc3c 23e0 25bd 4567 f63c
000001f0: d6f8 5c3c 6fa1 65bd 0006 d33c 78fb 44bd
00000200: 4e8d 2e3d 3eb1 0fbd b428 54bb fb8c 513d
00000210: c4c2 a03c ceed 0c3d dfd5 93bc 8372 2d3c
00000220: b4b8 9bbc d7bf 6f3c 350c 2fbd 8f15 013d
00000230: 6f96 2bbd d6f5 66bc 24c3 7ebd 0eeb 143d
00000240: b59e b63c 1320 ea3b 8ff8 ef3c 373a 53bd
00000250: 2d73 513d 9017 813c ca61 0ebd 7946 77bd
00000260: f87e f33b cb1d f33c 7832 68bd e7d9 60bd
00000270: beac 413d ec15 f3bb d871 bebc 8480 a23b
00000280: 2f41 c9bc 9d09 56bd afcb 5fbd 0017 f5bb
00000290: 7a89 a0bc a31d 603d b81c 04bd fff2 d7bb
000002a0: 00da 52bd 3754 b1bc 0da2 1a3d da9b 253d
000002b0: a2ad 4bbd 19e7 39bc 1722 7a3b 12f8 0abd
000002c0: bde0 203c 81f6 23bd 00b0 d73c a222 57bd
000002d0: f8bc 2e3d 972a 7ebd 79c0 83bd c0cc b0bb
000002e0: d8a6 efbc 2ac9 25bd aafc 513c cced 13bd
000002f0: 090b bd3c 6710 303d 0378 7dbc e7d3 2dbd
00000300: a55a 043c bbb9 c43a 1524 1d3d d799 413c
00000310: 8673 64bd fa8d 143c eb6a 56bd 0dee 26bd
00000320: b6ea 0c3c 12b4 073d 7d67 9f3c badc 57bd
00000330: 6511 79bd 0890 58bd 7035 30bd db6f 193d
00000340: 4aa3 1cbd 3f96 b73a cd85 0abd 3f90 333c
00000350: fb4d 07bd a3e7 da3c c721 18bd 18ff 0abc
00000360: e3ae f8bb 3e38 32bd 6da3 8cbc 0efa 5f3c
00000370: a27a 2ebd eacd bfbc 85f0 95bc 7182 f13c
00000380: b357 1b3d 8b64 47bd e4b6 41bd ec0d a33b
00000390: 01d3 e23c 8e3f 16bd 77e3 4dbc e8a0 d93c
000003a0: 6ffa 6c3c 3249 52bd aba0 393d 16e4 7abd
000003b0: b54e acbc 1bdb 193c 7a5f 6bbd 5009 75bd
000003c0: b5a1 29bc 3424 103d a3a2 263c a471 733a
000003d0: 66bd 673c b548 edbc 8e8e 56bd 32db 57bd
000003e0: 7510 903c 90b7 e6bc a36a f8bc 060e a23c
000003f0: 196f 1bbd 6c17 2d3d 2ab9 013c a025 47bd
-0.06527799 -0.045147732 0.04073956 -0.0059804297 0.006002945 0.040754285 -0.042350132 -0.011976672
-0.021778116 0.053006496 0.033555206 -0.04466811 0.02986858 -0.027819723 -0.02093982 -0.041551273
-0.00087397435 -0.009841287 -0.036948383 -0.0002766542 -0.045346007 0.007856272 0.0126445275 -0.058230676
-0.020713242 0.046806473 -0.058085136 -0.06513329 0.019571178 -0.022438694 0.014838574 0.04114672
0.039434146 -0.058746375 -0.061419778 0.02986999 -0.0036206788 -0.05792715 -0.010599676 -0.017462622
-0.04555426 0.020074934 -0.03927704 -0.031224335 0.012069667 0.012175587 -0.018585106 0.034992326
-0.06047744 -0.035528943 0.0013249711 0.009563075 0.039090984 -0.06338195 0.029636228 0.026636645
-0.026630234 -0.0243027 -0.0317717 0.045970503 0.00071630266 -0.03712835 -0.0083238045 -0.0023202146
-0.060994115 -0.046936605 -0.048531156 -0.028161032 -0.05062239 0.050786763 -0.0142448 -0.018897155
-0.012250712 0.01777662 -0.0041637206 0.047374997 0.04563407 -0.043152977 -0.009407916 -0.020806432
-0.027398549 0.0045649605 0.029926553 0.03567011 0.022449834 0.027111277 0.037762374 0.0153938625
0.005537344 0.005205789 -0.03894025 -0.040846184 -0.048166547 -0.053364433 -0.028296234 0.010701387
-0.018320791 -0.06256888 -0.043138318 0.034359623 -0.041518133 0.012490297 0.025562387 0.0245136
0.043833654 0.053680427 0.03663506 0.05293627 0.030588673 0.00395763 0.009432865 0.02178051
-0.038498007 -0.03481488 -0.043708216 0.035723727 0.044005997 0.012781269 0.010271588 0.035681266
-0.021464147 0.030776057 -0.040496957 0.03007854 0.0134870615 -0.05606216 0.025759697 -0.04809138
0.042615227 -0.03508114 -0.0032372894 0.05115984 0.019624121 0.034406476 -0.018046318 0.010586384
-0.019008972 0.0146331405 -0.04273625 0.0315147 -0.04189151 -0.014096698 -0.06219782 0.036356978
0.022292474 0.007144937 0.029293327 -0.05156919 0.05113523 0.015758306 -0.034761228 -0.060369942
0.0074309073 0.029677292 -0.056688756 -0.054895308 0.04728388 -0.007418385 -0.023247644 0.004959168
-0.024567215 -0.05225526 -0.054637607 -0.0074795485 -0.019596804 0.054715764 -0.03225395 -0.0065902467
-0.051477432 -0.021646602 0.0377522 0.040431835 -0.049726136 -0.011346602 0.0038167292 -0.033927985
0.009819207 -0.040030006 0.02632904 -0.052523263 0.042660683 -0.062052336 -0.064331956 -0.005395502
-0.029254362 -0.040475048 0.012816587 -0.036115453 0.023076551 0.042984392 -0.015470508 -0.042438414
0.008078252 0.0015008965 0.03836449 0.011816463 -0.055774234 0.009067053 -0.05234806 -0.040754367
0.008600881 0.033130713 0.019458527 -0.052700736 -0.060807604 -0.052871734 -0.043019712 0.03746019
-0.038241662 0.0014006569 -0.03381901 0.010959684 -0.033033352 0.026721781 -0.037141588 -0.008483671
-0.0075892075 -0.043510668 -0.017167771 0.0136704575 -0.04259742 -0.023413617 -0.018303165 0.029481145
0.037925433 -0.04867987 -0.04729356 0.004976025 0.027688505 -0.036681704 -0.012566439 0.026565984
0.014464005 -0.051339336 0.04531924 -0.061252676 -0.021033624 0.009390618 -0.0574641 -0.059823334
-0.010353495 0.035190776 0.010170612 0.0009286648 0.014144277 -0.028965333 -0.052382044 -0.052699275
0.017585972 -0.028163701 -0.030324286 0.019782078 -0.037947748 0.042258665 0.007917682 -0.048619866

sr_model.conv2.bias f4 [32]
00000000: f3a0 2bbb 2bed 11bd 19e0 8b3d 3bc1 573c
00000010: c036 843c b7f3 b6bc f93b e73c a591 9abb
00000020: df4c ea3b de94 0abb 68f3 2bbd ed1a b43c
00000030: 421a 2cbd 08f0 bcbc 050d f0bb 9370 033d
00000040: 5c7e eb3c ca1d 2b3d 3996 d83c c6bb a63c
00000050: eb21 59bd 3e25 ac3c 0e94 c7bc f17f 4b3d
00000060: cd61 4d3d dee4 e13a 312a 8fbb 60a4 393b
00000070: 8216 1cbd 4d90 edbc 3480 5b3d 83e6 4c3d
-0.0026188463 -0.03562657 0.068298526 0.013168628 0.016139388 -0.02233301 0.02822684 -0.004717069
0.007150277 -0.002114586 -0.041980177 0.021985495 -0.04201723 -0.023063675 -0.007325771 0.03208978
0.028746776 0.041776456 0.02643882 0.02035321 -0.053010862 0.021013852 -0.02436259 0.04968256
0.0501421 0.0017234345 -0.0043690433 0.0028326735 -0.038107403 -0.028999472 0.05358906 0.05002452

sr_model.conv3.weight f4 [1, 32, 3, 3]
00000000: 2297 773d 29f7 993a ec21 e5ba 8f2a 163d
00000010: b949 24bd f31b 40bd 1c00 733d 3f29 773d
00000020: 07fd 263d 6c44 173a 1022 253d 7746 f83c
00000030: 5e02 1a3d cbe3 1ebd 3e2a 0d3c 4b09 893b
00000040: 74f9 d3bb 9dbd 403d 9853 acbc 0039 b93c
00000050: 7624 50bc b867 063d 18d2 da3c 6d6c 3f3d
00000060: 54df 7b3d 9d01 463d 3733 84b9 cf56 60bd
00000070: 0383 fdbc b1f8 8a3b 31f7 673d 3cee 1fbd
00000080: 4392 2cbd e017 443d 3a7b 4f3c abf3 4d3d
00000090: 73d7 c03a 3b22 08bd b304 15bd c3b3 dc3c
000000a0: 6427 df3c 7e8c eebb 46d4 a0bc 6984 f7bb
000000b0: 95eb 603d 52a3 3cbc 9934 643d 29da 0cbd
000000c0: 335b 3c3d e9c7 e23a d988 41bd a0d5 023d
000000d0: 1716 033d bf90 19bd 0beb 323d b834 2e3d
000000e0: 3ad0 e33c 3997 07bd 3a2c 023c 9581 1b3d
000000f0: 8bc3 8fbc bfe5 663d dc99 193b 42f6 243d
00000100: 30e0 31ba 3e3a 2bbd 85de 473d c4a1 f0bc
00000110: ee71 5b3d 3c97 15bc fb93 473c b9a6 20bd
00000120: 06a3 123d f2f1 d03a fda9 c5bc 98a5 103c
00000130: e99d 22bd 1f0e 3dbd 7810 13bd 8a17 023d
00000140: 8ac3 a33c 11fb 343d 0ef6 9e3c c54f 28bc
00000150: f59f b53c dfb7 17bd eb51 1e3d 7b32 cbbc
00000160: 8e1c 9c3c 10c3 683d 3412 a33c 7c33 e8bc
00000170: 8ec4 8ebc 157b b13a f723 78bd 3260 063d
00000180: a526 433b c30e ffbb 4a00 48bd bc00 0c3d
00000190: a078 1a3d ca98 233d 2ac0 6fbc e335 52bd
000001a0: 7901 cfbc 67d8 cb3c a1a7 1f3d 507b 423d
000001b0: 97af 28bd 88da 67bc e54c 06bd 7c0a 0b3d
000001c0: d5a7 c63c e011 9bbc c4ec 97bb ab08 8a3d
000001d0: d634 29bc 94a5 413e 821f 4ebe fd05 5ebd
000001e0: 122d 953d d589 1cbe 3542 a7bd 7bdf 923d
000001f0: 8ca5 633e ec0d 503e 2fb9 5cbc 29c9 52bc
00000200: cf6b 253d f081 4d3c 9fb0 d1bb be0a 79bc
00000210: 61d2 2fbd 5915 59bd 97f0 453d a2f4 8bbd
00000220: f80e 3c3b 1954 9f3b 97d7 0dbd d836 493d
00000230: 1f23 3f3d 6758 1a3b 37a3 f7bc 6a2c de3c
00000240: c13e 2b3d c3ee 073c b1f4 da3c bb20 fcbc
00000250: 320e 4e3d 6ea3 1bbd a4b2 53bd 1407 a3bc
00000260: f290 003d dc46 823d 8815 4a3d b13d 1f3c
00000270: 9597 12bd 1dca 49bd 5502 813c bc3b c5bb
00000280: a5ea 9dbc d81d c5bc e2f9 dabc d154 f13c
00000290: a1f7 563d 92d2 7c3d 26ff ffba 5cf6 58bb
000002a0: 7fc4 6d3b d0b4 0dbd f6df a8bd b33b d6bb
000002b0: 7c79 6c3d c367 bf3c 6932 a13c 05a2 7e3d
000002c0: 188a 36bd 8012 363d 8a09 a3bb 5d9f 333d
000002d0: 299b 62bd b750 11bd e940 403d 7500 deba
000002e0: ac74 9ebb b052 3b3d 0e32 cabb 3e56 57bc
000002f0: 84a6 d93c 8999 93bd 4972 cabb aac0 efbd
00000300: 287d c13d 6197 623e 45b3 6abc b39a 08bd
00000310: d0c3 6b3d 63f0 66bd ac80 0cbd 30a5 7cbc
00000320: e1dd ebbb d88d be3b 0598 743d aef9 27bd
00000330: 8f11 c3ba 3301 7e3d 5671 da3b bfcd 443d
00000340: f8fc 103d be4e 1abd 9c2d 363d 3b7d c8bb
00000350: b329 17bd dd31 a53c 0f80 193d baac 43bb
00000360: 09f5 e3bc 2e97 423d 3576 153d c29a afbc
00000370: 6e22 cc3c c572 293d c049 023d c147 3dbd
00000380: b788 26bd 52a3 8cbd 7d87 943c f628 943d
00000390: 5d05 0c3d 5d2f 9d3d c52b f03c 2135 a4bd
000003a0: 63a2 d7bc c053 b4bc 0538 aa3c 061c 3b3d
000003b0: 4382 ec3c 8538 bebb e4a1 adbd d1d1 8dbd
000003c0: 1f4a f4bc 725c 30bb 2190 a9bc 9e13 6a3e
000003d0: 756c 763e c99e babd b8bb eebd 9e73 b5bd
000003e0: b0d5 523d 96a9 2dbe ff1f 27be 9832 713d
000003f0: 6631 333d 0a18 a6bb 859a 1ebd 0acc 9eba
0.060446866 0.0011746633 -0.0017481423 0.03666168 -0.04010937 -0.046901654 0.059326276 0.06034207
0.04076865 0.00057703885 0.040315688 0.030307038 0.037599914 -0.03879146 0.008616028 0.004182016
-0.006468946 0.04705583 -0.021035954 0.022610188 -0.012704005 0.032813758 0.026711509 0.046734262
0.06149228 0.048341382 -0.0002521516 -0.054770287 -0.03094626 0.004241072 0.056632224 -0.039045557
-0.042131674 0.04787433 0.012663657 0.050281208 0.0014712646 -0.03323577 -0.036381435 0.026941186
0.027240463 -0.0072799316 -0.01963247 -0.0075536263 0.05491217 -0.011513548 0.055714224 -0.03438774
0.04598541 0.001730201 -0.04724965 0.03194201 0.03200349 -0.037491556 0.043681186 0.042530745
0.027809251 -0.0331032 0.007945115 0.037965376 -0.017549297 0.056371447 0.0023437655 0.040273912
-0.00067854207 -0.04180359 0.048796196 -0.02937401 0.05357545 -0.009130295 0.012181277 -0.0392215
0.035800003 0.0015941246 -0.024128908 0.008828543 -0.039701376 -0.046156045 -0.035904378 0.03176073
0.019990701 0.044184748 0.019404437 -0.010272925 0.022171 -0.037040588 0.03865234 -0.024804344
0.019056585 0.05682665 0.01990614 -0.028344862 -0.017427709 0.001354071 -0.060581174 0.032806583
0.0029777673 -0.007783742 -0.0488284 0.034180388 0.037712693 0.039940633 -0.014633218 -0.05132092
-0.025269257 0.024883462 0.038978223 0.04748088 -0.04118308 -0.014151223 -0.032788176 0.033945546
0.02424995 -0.018929422 -0.004636379 0.067399345 -0.0103275385 0.1891082 -0.20129207 -0.05420493
0.07283987 -0.15286954 -0.08166925 0.07171532 0.2223112 0.20317811 -0.013471886 -0.012865343
0.040386017 0.012543187 -0.0063992287 -0.015200315 -0.042925242 -0.052998874 0.048325147 -0.068337694
0.0028695446 0.00486232 -0.03462943 0.04912457 0.046664353 0.0023551227 -0.030229194 0.027120788
0.041807894 0.008296671 0.026728006 -0.030777326 0.050306506 -0.037997656 -0.051684037 -0.019900836
0.03138823 0.063611716 0.04933694 0.009719298 -0.03578909 -0.049265016 0.015748182 -0.006019084
-0.019276926 -0.024062082 -0.026730482 0.029459389 0.05248225 0.061724253 -0.0019530996 -0.0033105826
0.003628045 -0.034596264 -0.08245842 -0.0065378784 0.057733044 0.023364907 0.019677358 0.062166233
-0.04456529 0.044451237 -0.0049755024 0.043853153 -0.055323754 -0.035477366 0.046936903 -0.0016937392
-0.0048356857 0.045733154 -0.0061705178 -0.01314312 0.026568659 -0.07207019 -0.0061781746 -0.1170667
0.094477 0.22128059 -0.014324968 -0.033350658 0.05755979 -0.056381594 -0.0343024 -0.015420243
-0.007198081 0.005815249 0.05971529 -0.041009597 -0.0014882552 0.062012862 0.0066663427 0.048047777
0.0353975 -0.03767275 0.04447709 -0.0061184443 -0.036905 0.020165378 0.03747564 -0.0029857592
-0.027826803 0.047507457 0.036489684 -0.021436099 0.024918761 0.04136922 0.031808615 -0.046211008
-0.040657725 -0.068670884 0.018131012 0.07234375 0.034184802 0.076750495 0.029317746 -0.08017946
-0.02632255 -0.022012591 0.020778665 0.045681022 0.028870707 -0.0058050775 -0.08478144 -0.06924785
-0.0298205 -0.002691057 -0.020698609 0.22859046 0.2406481 -0.09112317 -0.11656898 -0.08859943
0.05147332 -0.16959223 -0.163208 0.05888614 0.043748282 -0.0050687836 -0.03872158 -0.0012115252
