weights/best_weights2.pth (torch, 44410 bytes, 5 tensors)

sr_model.conv1.weight f4 [32, 1, 5, 5]
0.12581931 0.07798058 0.042108946 -0.06936594 0.099051595 -0.07930457 -0.17439394 0.013700958
0.17483507 0.018375114 -0.03062665 0.07802099 0.12711577 0.07396334 0.15791474 0.13510153
0.17812078 -0.19031094 -0.048829682 0.019468961 -0.06516389 -0.08157437 0.16472434 0.0069988305
0.14557211 0.028510785 -0.08314998 -0.014416351 -0.18268946 -0.12776427 0.06447352 0.11083672
-0.21984342 0.16906302 0.19821323 -0.08777662 -0.045247864 0.1481485 0.0018281232 0.20746519
-0.018244203 -0.032663878 0.16561909 -0.042741496 0.048573807 0.028649168 0.0032676042 -0.17351376
0.09296614 0.008722109 0.19447704 -0.0035379252 -0.0132941045 0.037469897 -0.03550365 -0.07340437
-0.13200003 0.18905461 -0.045949664 0.07326572 -0.027681936 -0.039361954 0.05606168 0.022425966
-0.04533497 0.009405001 0.17007819 0.028523503 -0.016186249 0.024387278 0.018550672 -0.10605253
-0.015000513 0.18214859 -0.12330304 0.037448842 -0.103424646 -0.2115555 0.058596116 0.07190141
0.14837444 -0.19408612 0.13728456 0.13469447 -0.07065588 -0.047056053 0.16682038 -0.013093133
-0.122872196 -0.1907222 0.08051584 -0.13374889 0.013742638 -0.101947285 0.0002806998 -0.05071018
0.15192123 -0.022827169 0.09680322 0.10853152 0.13149185 -0.11285175 0.07911423 -0.16075744
-0.06362682 -0.08672604 -0.20563386 -0.17115602 0.061967794 0.055185147 0.16086516 -0.17546639
0.04760657 -0.05015776 0.19404688 0.07187592 -0.08729646 0.042742465 0.21298273 -0.09375158
0.14031592 0.14397404 -0.0327358 0.018214736 -0.103776366 0.12262172 -0.1800303 0.13589433
-0.1208579 -0.07833303 0.16638893 0.19555682 -0.15262903 0.08915335 0.21214184 0.19572487
0.103012204 -0.12844011 -0.020331899 -0.14432521 0.023934435 0.14835694 -0.15048993 0.16929963
0.08214488 -0.10799247 0.051034756 -0.14749864 -0.12031007 -0.051934842 0.104145 0.045159917
-0.08330353 0.16294691 0.00769048 0.08370642 -0.12783809 0.04663848 -0.17908886 -0.13833156
0.05939672 0.1437043 -0.088912085 -0.027281435 -0.09858385 -0.22084169 0.01638971 -0.010875798
0.2788923 0.118134655 -0.006172468 -0.20474736 0.15157115 0.15042984 0.044502147 -0.09393515
0.11535993 -0.13245668 0.1638291 0.13339078 0.118492946 0.1716344 0.1174181 0.18558693
0.13723588 0.0070256814 0.14244267 0.024795186 -0.119073085 0.19719231 0.13743368 -0.12821582
-0.107270695 0.14613347 -0.13200942 0.0020915866 -0.029620053 0.20298956 0.12129259 -0.023002027
0.16409911 -0.13982521 0.016825043 0.05810024 0.0024255142 0.10947095 -0.019705776 0.20277603
-0.0885476 0.20923646 -0.006866281 0.0032448655 0.16152897 0.02856594 0.21780376 -0.14556715
-0.06994852 -0.09749232 0.142772 -0.05778487 0.15016487 0.022724548 -0.14849982 -0.16705996
-0.08690179 -0.09444847 -0.18897863 -0.16285656 -0.15215337 0.13424014 0.16279943 -0.19372351
-0.118029766 0.16586137 -0.037346866 0.047033645 -0.02724867 0.19198766 -0.095375896 -0.15827595
-0.11578703 0.117695 0.06146879 0.067672014 -0.0110158445 -0.17012222 -0.02864089 -0.13666451
0.031023884 -0.09555831 0.09967353 0.14582084 0.12930672 0.10374626 0.08912059 0.063371666
00000000: c7d6 003e 48b4 9f3d 6e7a 2c3d bb0f 8ebd
00000010: 90db ca3d 6f6a a2bd 5394 32be fc79 603c
00000020: f707 333e 6887 963c bee4 fabc 78c9 9f3d
00000030: a32a 023e 177a 973d 67b4 213e 0e58 0a3e
00000040: 4b65 363e dfe0 42be a201 48bd 5f7d 9f3c
00000050: a574 85bd 7710 a7bd 7fad 283e 7256 e53b
00000060: db10 153e 738f e93c 894a aabd 8f32 6cbc
00000070: f212 3bbe a3d4 02be b10a 843d 5dfe e23d
00000080: a21e 61be db1e 2d3e 69f8 4a3e 3bc4 b3bd
00000090: d355 39bd 3eb4 173e a39d ef3a c171 543e
000000a0: de74 95bc 8fca 05bd 0d98 293e b511 2fbd
000000b0: 54f5 463d a9b1 ea3c 4d25 563b 97ad 31be
000000c0: 0865 be3d 2de7 0e3c fd24 473e 89dc 67bb
000000d0: 84cf 59bc 097a 193d 466c 11bd 0855 96bd
000000e0: 042b 07be 8897 413e b735 3cbd 560c 963d
000000f0: 3ac5 e2bc 003a 21bd efa0 653d a9b6 b73c
00000100: 29b1 39bd 6f17 1a3c fa28 2e3e 1faa e93c
00000110: 0699 84bc d4c7 c73c 94f7 973c 1232 d9bd
00000120: b6c4 75bc 2985 3a3e 4e86 fcbd f563 193d
00000130: 4dd0 d3bd 01a2 58be 7b02 703d 0c41 933d
00000140: 78ef 173e 83be 46be 5394 0c3e 59ed 093e
00000150: 08b4 90bd d9bd 40bd f6d2 2a3e 9584 56bc
00000160: 6ba4 fbbd ae4c 43be 7de5 a43d 78f5 08be
00000170: cd28 613c bdc9 d0bd e42a 9339 7ab5 4fbd
00000180: 3d91 1b3e 0b00 bbbc c440 c63d c645 de3d
00000190: cda5 063e d11e e7bd a406 a23d 999d 24be
000001a0: c74e 82bd 6c9d b1bd af91 52be 8643 2fbe
000001b0: f1d1 7d3d d209 623d d6b9 243e 76ad 33be
000001c0: 1bff 423d 3972 4dbd 3ab4 463e af33 933d
000001d0: 7dc8 b2bd b912 2f3d 2518 5a3e d400 c0bd
000001e0: faae 0f3e ee6d 133e f915 06bd 1237 953c
000001f0: b488 d4bd 1921 fb3d dd59 38be e227 0b3e
00000200: 5984 f7bd 116d a0bd dc61 2a3e 0c40 483e
00000210: c94a 1cbe 0896 b63d b63b 593e 1a6c 483e
00000220: 10f8 d23d ce85 03be 158f a6bc fdc9 13be
00000230: 2612 c43c e2ea 173e 081a 1abe e25c 2d3e
00000240: 933b a83d 282b ddbd d209 513d e209 17be
00000250: 2065 f6bd a1b9 54bd f949 d53d 9bf9 383d
00000260: 0b9b aabd 8edb 263e 6c00 fc3b 466e ab3d
00000270: fde7 02be fe07 3f3d 1263 37be caa6 0dbe
00000280: fa49 733d 3827 133e 8a17 b6bd 517d dfbc
00000290: 54e6 c9bd 5324 62be b743 863c 6730 32bc
000002a0: f9ca 8e3e 95f0 f13d 6a42 cabb 4ba9 51be
000002b0: 7835 1b3e 480a 1a3e e247 363d 1261 c0bd
000002c0: d441 ec3d b9a2 07be d1c2 273e 9897 083e
000002d0: 6eac f23d eec0 2f3e e778 f03d 800a 3e3e
000002e0: 9087 0c3e b037 e63b 7edc 113e 461f cb3c
000002f0: 97dc f3bd c8ec 493e 6abb 0c3e 024b 03be
00000300: bdb0 dbbd 03a4 153e 7a2d 07be 0013 093b
00000310: c1a5 f2bc 7fdc 4f3e 4068 f83d bf6e bcbc
00000320: 9909 283e 572e 0fbe acd4 893c 84fa 6d3d
00000330: 60f5 1e3b 4e32 e03d 026e a1bc 85a4 4f3e
00000340: 7258 b5bd 1542 563e 8afe e0bb cfa7 543b
00000350: da67 253e 1e03 ea3c f307 5f3e 8e0f 15be
00000360: 2b41 8fbd 0eaa c7bd d332 123e d4af 6cbd
00000370: d2c4 193e d528 ba3c 5610 18be c411 2bbe
00000380: 91f9 b1bd 336e c1bd 9d83 41be dfc3 26be
00000390: 18ce 1bbe 3f76 093e e5b4 263e 755f 46be
000003a0: 97b9 f1bd 90d7 293e 07f9 18bd 5aa6 403d
000003b0: 9a38 dfbc 6a98 443e 7054 c3bd 1713 22be
000003c0: c021 edbd 130a f13d b3c6 7b3d a097 8a3d
000003d0: cd7b 34bc 8534 2ebe 4da0 eabc c8f1 0bbe
000003e0: cd25 fe3c 13b4 c3bd a321 cc3d 0f52 153e
000003f0: fb68 043e eb78 d43d db84 b63d 01c9 813d

sr_model.conv1.bias f4 [32]
0.021906255 -0.21809272 0.011743595 0.05327714 0.043937635 -0.25354534 -0.021166092 -0.11166023
0.028005878 -0.11496377 0.13813958 0.012236906 -0.03135897 -0.0050591296 0.035035633 0.184644
0.09488779 -0.14998658 0.029774876 -0.1932451 0.008338306 -0.17351015 -0.023313213 0.070523866
0.15523544 0.06522253 -0.0026250505 0.056648124 -0.0176947 0.012169827 0.010881236 0.034204397
00000000: bf74 b33c b353 5fbe 3568 403c 2139 5a3d
00000010: f3f7 333d b2d0 81be 8364 adbc 1eae e4bd
00000020: 956c e53c 2072 ebbd 7674 0d3e 4e7d 483c
00000030: 4372 00bd 0ec7 a5bb 8681 0f3d 5113 3d3e
00000040: 8854 c23d 1596 19be 71ea f33c 0be2 45be
00000050: 649d 083c a5ac 31be 5afb bebc d16e 903d
00000060: 0af6 1e3e 6493 853d 0a09 2cbb dd07 683d
00000070: 7af4 90bc f463 473c 3647 323c e919 0c3d

sr_model.conv2.weight f4 [32, 32, 3, 3]
-0.06527799 -0.045147732 0.04073956 -0.0059804297 0.006002945 0.040754285 -0.042350132 -0.011976672
-0.021778116 0.053006496 0.033555206 -0.04466811 0.02986858 -0.027819723 -0.02093982 -0.041551273
-0.00087397435 -0.009841287 -0.036948383 -0.0002766542 -0.045346007 0.007856272 0.0126445275 -0.058230676
-0.020713242 0.046806473 -0.058085136 -0.06513329 0.019571178 -0.022438694 0.014838574 0.04114672
0.039434146 -0.058746375 -0.061419778 0.02986999 -0.0036206788 -0.05792715 -0.010599676 -0.017462622
-0.04555426 0.020074934 -0.03927704 -0.031224335 0.012069667 0.012175587 -0.018585106 0.034992326
-0.06047744 -0.035528943 0.0013249711 0.009563075 0.039090984 -0.06338195 0.029636228 0.026636645
-0.026630234 -0.0243027 -0.0317717 0.045970503 0.00071630266 -0.03712835 -0.0083238045 -0.0023202146
-0.060994115 -0.046936605 -0.048531156 -0.028161032 -0.05062239 0.050786763 -0.0142448 -0.018897155
-0.012250712 0.01777662 -0.0041637206 0.047374997 0.04563407 -0.043152977 -0.009407916 -0.020806432
-0.027398549 0.0045649605 0.029926553 0.03567011 0.022449834 0.027111277 0.037762374 0.0153938625
0.005537344 0.005205789 -0.03894025 -0.040846184 -0.048166547 -0.053364433 -0.028296234 0.010701387
-0.018320791 -0.06256888 -0.043138318 0.034359623 -0.041518133 0.012490297 0.025562387 0.0245136
0.043833654 0.053680427 0.03663506 0.05293627 0.030588673 0.00395763 0.009432865 0.02178051
-0.038498007 -0.03481488 -0.043708216 0.035723727 0.044005997 0.012781269 0.010271588 0.035681266
-0.021464147 0.030776057 -0.040496957 0.03007854 0.0134870615 -0.05606216 0.025759697 -0.04809138
0.042615227 -0.03508114 -0.0032372894 0.05115984 0.019624121 0.034406476 -0.018046318 0.010586384
-0.019008972 0.0146331405 -0.04273625 0.0315147 -0.04189151 -0.014096698 -0.06219782 0.036356978
0.022292474 0.007144937 0.029293327 -0.05156919 0.05113523 0.015758306 -0.034761228 -0.060369942
0.0074309073 0.029677292 -0.056688756 -0.054895308 0.04728388 -0.007418385 -0.023247644 0.004959168
-0.024567215 -0.05225526 -0.054637607 -0.0074795485 -0.019596804 0.054715764 -0.03225395 -0.0065902467
-0.051477432 -0.021646602 0.0377522 0.040431835 -0.049726136 -0.011346602 0.0038167292 -0.033927985
0.009819207 -0.040030006 0.02632904 -0.052523263 0.042660683 -0.062052336 -0.064331956 -0.005395502
-0.029254362 -0.040475048 0.012816587 -0.036115453 0.023076551 0.042984392 -0.015470508 -0.042438414
0.008078252 0.0015008965 0.03836449 0.011816463 -0.055774234 0.009067053 -0.05234806 -0.040754367
0.008600881 0.033130713 0.019458527 -0.052700736 -0.060807604 -0.052871734 -0.043019712 0.03746019
-0.038241662 0.0014006569 -0.03381901 0.010959684 -0.033033352 0.026721781 -0.037141588 -0.008483671
-0.0075892075 -0.043510668 -0.017167771 0.0136704575 -0.04259742 -0.023413617 -0.018303165 0.029481145
0.037925433 -0.04867987 -0.04729356 0.004976025 0.027688505 -0.036681704 -0.012566439 0.026565984
0.014464005 -0.051339336 0.04531924 -0.061252676 -0.021033624 0.009390618 -0.0574641 -0.059823334
-0.010353495 0.035190776 0.010170612 0.0009286648 0.014144277 -0.028965333 -0.052382044 -0.052699275
0.017585972 -0.028163701 -0.030324286 0.019782078 -0.037947748 0.042258665 0.007917682 -0.048619866
00000000: 78b0 85bd d4ec 38bd 86de 263d 7bf7 c3bb
00000010: 5ab4 c43b f7ed 263d 5577 2dbd ce39 44bc
00000020: 0568 b2bc 571d 593d 2f71 093d e8f5 36bd
00000030: f4ae f43c 30e6 e3bc fc89 abbc ab31 2abd
00000040: 6d1b 65ba 593d 21bc 3057 17bd e60b 91b9
00000050: bcbc 39bd 98b7 003c fe2a 4f3c 4a83 6ebd
00000060: d1ae a9bc 25b8 3f3d aeea 6dbd 9a64 85bd
00000070: bc53 a03c 5ad1 b7bc 7e1d 733c 7789 283d
00000080: b385 213d 0aa0 70bd 4e93 7bbd e9b1 f43c
00000090: e948 6dbb 0545 6dbd 43aa 2dbc c60d 8fbc
000000a0: 1b97 3abd 3074 a43c f6e0 20bd 2dca ffbc
000000b0: dabf 453c 1d7c 473c cb3f 98bc 1d54 0f3d
000000c0: 31b7 77bd cc86 11bd a7aa ad3a 72ae 1c3c
000000d0: de1d 203d 65ce 81bd adc7 f23c 1835 da3c
000000e0: a627 dabc 7516 c7bc 0b23 02bd 914b 3c3d
000000f0: 42c6 3b3a e613 18bd 9160 08bc be0e 18bb
00000100: f7d4 79bd 9940 40bd 9bc8 46bd f7b1 e6bc
00000110: 6c59 4fbd c805 503d 0663 69bc 35ce 9abc
00000120: 36b7 48bc 46a0 913c d26f 88bb 490c 423d
00000130: caea 3a3d 2dc1 30bd a923 1abc 4072 aabc
00000140: ec72 e0bc aa95 953b 8828 f53c d21a 123d
00000150: b7e8 b73c 7818 de3c b8ac 1a3d 8a36 7c3c
00000160: 9c72 b53b 5395 aa3b d07f 1fbd 544e 27bd
00000170: 494a 45bd aa94 5abd 81cd e7bc df54 2f3c
00000180: 7c15 96bc 1d24 80bd ceb1 30bd adbc 0c3d
00000190: eb0e 2abd 1aa4 4c3c 3668 d13c bfd0 c83c
000001a0: eb8a 333d 02e0 5b3d a50e 163d b4d3 583d
000001b0: 1995 fa3c 02af 813b 4e8c 1a3c 0a6d b23c
000001c0: 16b0 1dbd 0c9a 0ebd 6307 33bd 0b53 123d
000001d0: a23f 343d 8768 513c 2a4a 283c 8526 123d
000001e0: 94d5 afbc 121e fc3c 23e0 25bd 4567 f63c
000001f0: d6f8 5c3c 6fa1 65bd 0006 d33c 78fb 44bd
00000200: 4e8d 2e3d 3eb1 0fbd b428 54bb fb8c 513d
00000210: c4c2 a03c ceed 0c3d dfd5 93bc 8372 2d3c
00000220: b4b8 9bbc d7bf 6f3c 350c 2fbd 8f15 013d
00000230: 6f96 2bbd d6f5 66bc 24c3 7ebd 0eeb 143d
00000240: b59e b63c 1320 ea3b 8ff8 ef3c 373a 53bd
00000250: 2d73 513d 9017 813c ca61 0ebd 7946 77bd
00000260: f87e f33b cb1d f33c 7832 68bd e7d9 60bd
00000270: beac 413d ec15 f3bb d871 bebc 8480 a23b
00000280: 2f41 c9bc 9d09 56bd afcb 5fbd 0017 f5bb
00000290: 7a89 a0bc a31d 603d b81c 04bd fff2 d7bb
000002a0: 00da 52bd 3754 b1bc 0da2 1a3d da9b 253d
000002b0: a2ad 4bbd 19e7 39bc 1722 7a3b 12f8 0abd
000002c0: bde0 203c 81f6 23bd 00b0 d73c a222 57bd
000002d0: f8bc 2e3d 972a 7ebd 79c0 83bd c0cc b0bb
000002e0: d8a6 efbc 2ac9 25bd aafc 513c cced 13bd
000002f0: 090b bd3c 6710 303d 0378 7dbc e7d3 2dbd
00000300: a55a 043c bbb9 c43a 1524 1d3d d799 413c
00000310: 8673 64bd fa8d 143c eb6a 56bd 0dee 26bd
00000320: b6ea 0c3c 12b4 073d 7d67 9f3c badc 57bd
00000330: 6511 79bd 0890 58bd 7035 30bd db6f 193d
00000340: 4aa3 1cbd 3f96 b73a cd85 0abd 3f90 333c
00000350: fb4d 07bd a3e7 da3c c721 18bd 18ff 0abc
00000360: e3ae f8bb 3e38 32bd 6da3 8cbc 0efa 5f3c
00000370: a27a 2ebd eacd bfbc 85f0 95bc 7182 f13c
00000380: b357 1b3d 8b64 47bd e4b6 41bd ec0d a33b
00000390: 01d3 e23c 8e3f 16bd 77e3 4dbc e8a0 d93c
000003a0: 6ffa 6c3c 3249 52bd aba0 393d 16e4 7abd
000003b0: b54e acbc 1bdb 193c 7a5f 6bbd 5009 75bd
000003c0: b5a1 29bc 3424 103d a3a2 263c a471 733a
000003d0: 66bd 673c b548 edbc 8e8e 56bd 32db 57bd
000003e0: 7510 903c 90b7 e6bc a36a f8bc 060e a23c
000003f0: 196f 1bbd 6c17 2d3d 2ab9 013c a025 47bd

sr_model.conv2.bias f4 [32]
-0.0026188463 -0.03562657 0.06919857 0.011302063 0.016139388 -0.023553824 0.028957892 -0.004717069
0.007150277 -0.001797848 -0.043211248 0.021982605 -0.039581846 -0.02074735 -0.007325771 0.031658478
0.028493725 0.04474948 0.025233699 0.0212287 -0.049995888 0.02050703 -0.02436259 0.04990334
0.049148094 0.0014520603 -0.0039871284 0.004007424 -0.038107403 -0.032012936 0.054399088 0.05002847
00000000: f3a0 2bbb 2bed 11bd fbb7 8d3d 4a2c 393c
00000010: c036 843c f3f3 c0bc 1a39 ed3c a591 9abb
00000020: df4c ea3b c5a5 ebba 47fe 30bd dd14 b43c
00000030: 9320 22bd 59f6 a9bc 050d f0bb 52ac 013d
00000040: ac6b e93c 3b4b 373d e7b6 ce3c d0e7 ad3c
00000050: 7dc8 4cbd 5cfe a73c 0e94 c7bc 7267 4c3d
00000060: 834f 493d 0f53 be3a 75a6 82bb b650 833b
00000070: 8216 1cbd ff1f 03bd 94d1 5e3d a7ea 4c3d

sr_model.conv3.weight f4 [1, 32, 3, 3]
0.060446866 0.0011746633 -0.0017481423 0.03666168 -0.04010937 -0.046901654 0.059326276 0.06034207
0.04076865 0.00057703885 0.040315688 0.030307038 0.037599914 -0.03879146 0.008616028 0.004182016
-0.006468946 0.04705583 -0.020923845 0.022665406 -0.012992526 0.033155113 0.027054708 0.04678762
0.061686505 0.04855105 -0.00025299046 -0.056072697 -0.035589125 0.0024850634 0.057634234 -0.04025185
-0.042175636 0.051055234 0.013683522 0.049541753 0.0014712646 -0.03323577 -0.036381435 0.026941186
0.027240463 -0.0072799316 -0.01963247 -0.0075536263 0.05491217 -0.011733863 0.055087313 -0.03528788
0.045984447 0.0012549422 -0.047964673 0.03160264 0.031235607 -0.038306266 0.04376028 0.042564485
0.0276051 -0.032972384 0.008058707 0.037933536 -0.01771608 0.05623437 0.0021573696 0.040273912
-0.00067854207 -0.04180359 0.048796196 -0.02937401 0.05357545 -0.009130295 0.012181277 -0.0392215
0.035800003 0.0015941246 -0.024128908 0.008828543 -0.039701376 -0.046156045 -0.035904378 0.03176073
0.019990701 0.044059753 0.019161828 -0.010924483 0.02205076 -0.037286524 0.038052067 -0.025049446
0.018693939 0.0563021 0.025697203 -0.026310578 -0.014996884 0.005625553 -0.060813393 0.035005517
0.0068091727 -0.0062574926 -0.04437763 0.034180388 0.037712693 0.039940633 -0.014632977 -0.051320374
-0.025269154 0.024883462 0.038978223 0.04748088 -0.043450244 -0.01766664 -0.036802836 0.03537099
0.025097776 -0.022821171 -0.0018957735 0.071506456 -0.009323125 0.1836794 -0.2103513 -0.065705925
0.0726099 -0.16287024 -0.08036307 0.09245925 0.22061089 0.19860515 -0.013471886 -0.012865343
0.040386017 0.012543187 -0.0063992287 -0.015200315 -0.042925242 -0.052998874 0.048325147 -0.0698562
0.0029869382 0.005229589 -0.036181115 0.050554678 0.047721293 0.0022828595 -0.029806277 0.02704732
0.041534696 0.008071488 0.02571328 -0.03157666 0.049785 -0.03809484 -0.053569008 -0.02149878
0.030092342 0.065150864 0.05123695 0.010241571 -0.03696471 -0.050056975 0.015654864 -0.006708486
-0.021444228 -0.025095087 -0.024964673 0.030220725 0.054377005 0.062339585 0.00020051171 -0.0039157816
0.0030413882 -0.03669954 -0.08624527 -0.006148769 0.058040097 0.023346318 0.020229192 0.06259562
-0.044412512 0.044812214 -0.0046758046 0.043958362 -0.05669039 -0.035403833 0.047971148 -0.0021729828
-0.0044794423 0.04611985 -0.007083999 -0.013391789 0.026625829 -0.07525562 -0.008874634 -0.12967645
0.1049708 0.23175766 -0.02061285 -0.03842595 0.057417516 -0.062124476 -0.0343024 -0.015420243
-0.007198081 0.005815249 0.05971529 -0.041009597 -0.0014882552 0.062012862 0.0066663427 0.04812724
0.0353624 -0.03793282 0.04456398 -0.006160739 -0.03707736 0.01997143 0.037102994 -0.0034826035
-0.036045562 0.045283373 0.035452925 -0.025751924 0.023027897 0.03989774 0.029826298 -0.050084323
-0.047791738 -0.07280149 0.0130654415 0.07304923 0.030367112 0.08461387 0.040699296 -0.082834736
-0.03294369 -0.025784006 0.02200441 0.051708177 0.038303096 -0.011736564 -0.094879664 -0.068995826
-0.030003216 -0.0044881734 -0.0233639 0.22803429 0.23311287 -0.08376256 -0.10954045 -0.080126226
0.04544776 -0.16696467 -0.16372201 0.053242877 0.043748282 -0.0050687836 -0.03872158 -0.0012115252
00000000: 2297 773d 29f7 993a ec21 e5ba 8f2a 163d
00000010: b949 24bd f31b 40bd 1c00 733d 3f29 773d
00000020: 07fd 263d 6c44 173a 1022 253d 7746 f83c
00000030: 5e02 1a3d cbe3 1ebd 3e2a 0d3c 4b09 893b
00000040: 74f9 d3bb 9dbd 403d 7c68 abbc cdac b93c
00000050: 9bde 54bc a8cd 073d d6a1 dd3c 60a4 3f3d
00000060: fdaa 7c3d 77dd 463d cea3 84b9 7cac 65bd
00000070: e7c5 11bd 72dc 223b e011 6c3d 20df 24bd
00000080: 5cc0 2cbd 4b1f 513d da30 603c 4bec 4a3d
00000090: 73d7 c03a 3b22 08bd b304 15bd c3b3 dc3c
000000a0: 6427 df3c 7e8c eebb 46d4 a0bc 6984 f7bb
000000b0: 95eb 603d 633f 40bc 3ca3 613d 068a 10bd
000000c0: 305a 3c3d df7c a43a 9b76 44bd c571 013d
000000d0: d1e1 ff3c 08e7 1cbd fb3d 333d 1958 2e3d
000000e0: 1724 e23c 0d0e 07bd ab08 043c 3260 1b3d
000000f0: 5021 91bc 0356 663d a862 0d3b 42f6 243d
00000100: 30e0 31ba 3e3a 2bbd 85de 473d c4a1 f0bc
00000110: ee71 5b3d 3c97 15bc fb93 473c b9a6 20bd
00000120: 06a3 123d f2f1 d03a fda9 c5bc 98a5 103c
00000130: e99d 22bd 1f0e 3dbd 7810 13bd 8a17 023d
00000140: 8ac3 a33c 0078 343d 44f9 9c3c 9afc 32bc
00000150: cca3 b43c c1b9 18bd 7cdc 1b3d 7f34 cdbc
00000160: 0824 993c 089d 663d f182 d23c 4889 d7bc
00000170: 7eb5 75bc 8f56 b83b 7717 79bd f261 0f3d
00000180: 7b1f df3b a70b cdbb 51c5 35bd bc00 0c3d
00000190: a078 1a3d ca98 233d 27bf 6fbc 5035 52bd
000001a0: 4201 cfbc 67d8 cb3c a1a7 1f3d 507b 423d
000001b0: e2f8 31bd a1b9 90bc 92be 16bd 2ce1 103d
000001c0: da99 cd3c 77f3 babc 9a7b f8ba fa71 923d
000001d0: 05c0 18bc 7416 3c3e 5566 57be d490 86bd
000001e0: 80b4 943d 75c7 26be 6595 a4bd 465b bd3d
000001f0: d2e7 613e 265f 4b3e 2fb9 5cbc 29c9 52bc
00000200: cf6b 253d f081 4d3c 9fb0 d1bb be0a 79bc
00000210: 61d2 2fbd 5915 59bd 97f0 453d c410 8fbd
00000220: 82c0 433b f95c ab3b a632 14bd 6c12 4f3d
00000230: 6777 433d 079c 153b 4b2c f4bc 5792 dd3c
00000240: 4920 2a3d 463e 043c a8a4 d23c 8756 01bd
00000250: 5beb 4b3d 5609 1cbd 2d6b 5bbd 361e b0bc
00000260: 3784 f63c d16d 853d d6dd 513d 43cc 273c
00000270: 4f68 17bd 8b08 4dbd a13e 803c dcd2 dbbb
00000280: ceab afbc 3694 cdbc b782 ccbc 7491 f73c
00000290: 6cba 5e3d cb57 7f3d 7440 5239 f54f 80bb
000002a0: 0752 473b 4252 16bd 5ca1 b0bd 9d7b c9bb
000002b0: 74bb 6d3d c740 bf3c b1b7 a53c 2232 803d
000002c0: e5e9 35bd 038d 373d 7e37 99bb af0d 343d
000002d0: 2f34 68bd 9c03 11bd 657d 443d 9a68 0ebb
000002e0: 49c8 92bb 2be8 3c3d e420 e8bb 3c69 5bbc
000002f0: 691e da3c 9e1f 9abd ea66 11bc e7c9 04be
00000300: eefa d63d e151 6d3e 48dc a8bc 8764 1dbd
00000310: a12e 6b3d 3c76 7ebd ac80 0cbd 30a5 7cbc
00000320: e1dd ebbb d88d be3b 0598 743d aef9 27bd
00000330: 8f11 c3ba 3301 7e3d 5671 da3b 1221 453d
00000340: 2ad8 103d 725f 1bbd b888 363d 06e0 c9bb
00000350: 6ede 17bd 209b a33c 4ff9 173d 643c 64bb
00000360: 83a4 13bd 0f7b 393d 1637 113d b3f5 d2bc
00000370: 00a5 bc3c d06b 233d 4856 f43c 3825 4dbd
00000380: 45c1 43bd f318 95bd 6f10 563c d69a 953d
00000390: 73c4 f83c 094a ad3d 4eb4 263d 42a5 a9bd
000003a0: f6ef 06bd fb38 d3bc 9842 b43c f4cb 533d
000003b0: b5e3 1c3d b84a 40bc 4550 c2bd af4d 8dbd
000003c0: 4ec9 f5bc 8711 93bb a665 bfbc d281 693e
000003d0: 24b5 6e3e b48b abbd be56 e0bd 3819 a4bd
000003e0: 6e27 3a3d c9f8 2abe bea6 27be 3415 5a3d
000003f0: 6631 333d 0a18 a6bb 859a 1ebd 0acc 9eba
